saved/saved_model.pkl (torch, 5872 bytes, 5 tensors)

input_to_hidden.weight f4 [32, 6]
000000 03 88 6b be b3 9f 15 40 f1 b9 af 3f 4c 5a fd 3f
       -0.23001103 2.3378723 1.372862 1.9793181
000010 23 82 51 3f 5d 71 aa bf 51 d3 3a bf 1d e6 a3 be
       0.818392 -1.3315846 -0.72978693 -0.320115
000020 3b b6 73 be 8e 68 69 be 2e 4e d4 be 37 84 0f bf
       -0.23799984 -0.2279379 -0.41465896 -0.5606112
000030 4d b5 60 be a2 20 c9 be 9e f5 ae 3e 96 72 5d bd
       -0.21944161 -0.3928271 0.34171766 -0.054064356
000040 11 70 ed bd 8b b9 42 be b7 b2 53 bf 4e a5 22 bf
       -0.115936406 -0.19016092 -0.8269457 -0.63533485
000050 df 83 49 bf 47 c3 f8 be ac ec 73 be 85 41 22 bf
       -0.78716844 -0.48586485 -0.23820752 -0.63381225
000060 9e 04 92 bd 69 1e 71 be c1 dc cc bd aa 6f 69 be
       -0.07129787 -0.23546757 -0.10003043 -0.22796503
000070 c3 f0 fe 3d 72 80 cd be 23 35 4b 3e f8 5e e8 3d
       0.124482654 -0.40137058 0.19844489 0.11346239
000080 a5 81 d2 3c f2 b0 f6 3d d7 0d 02 bf 51 6b 3b be
       0.025696585 0.120454684 -0.5080237 -0.18302657
000090 b8 83 f4 be 7f 7a 33 3e 19 c7 c3 3d 8e bf 57 bd
       -0.47756743 0.17527197 0.09559459 -0.052672915
0000a0 73 89 6c 3b 35 49 26 3e 7d ff d7 be ae 04 35 3e
       0.0036092668 0.16238864 -0.4218711 0.17677566
0000b0 e6 e1 20 3e a7 19 64 bd ef 70 cb bc 2a 69 f1 be
       0.15711173 -0.055688526 -0.024834124 -0.47150546
0000c0 ca cb 43 3e 17 be 15 3e f0 30 f3 bd 87 bf 12 bf
       0.19120708 0.14623295 -0.118745685 -0.573235
0000d0 c0 57 3d bf a8 58 33 bf 5b d5 17 bf 09 ad da be
       -0.7396202 -0.70057154 -0.5930993 -0.4271014
0000e0 0d 03 60 be 7a 7e 32 bd 2f e7 db 3d fc 47 ce be
       -0.21876164 -0.04357765 0.10737454 -0.40289295
0000f0 56 ba d6 be 62 05 de 3e 84 9a 4f 3f da 6e 42 3e
       -0.41939038 0.43363482 0.8109515 0.18987599
000100 db 0a d2 be d4 65 9b bd 99 ff a4 bd e0 79 5b bd
       -0.41023907 -0.075877815 -0.08056564 -0.053583026
000110 e6 99 12 3f da cd 8e 3e 9e cb 20 bf ef 58 59 bf
       0.5726608 0.27891427 -0.62810695 -0.84901327
000120 17 7f 9a be b8 80 5e be 1c 9a 83 be b5 5c aa 3e
       -0.30175087 -0.2172879 -0.25703514 0.33273855
000130 2e 53 b5 be 44 c9 89 bc 21 59 bf bd 0b 2f 7d be
       -0.35415024 -0.016819604 -0.09343172 -0.24724977
000140 09 27 f7 bc 08 f9 0d be 96 79 27 be 06 7a 3c 3e
       -0.03016998 -0.13864529 -0.16354975 0.18405923
000150 de 0b e1 be a9 1f 23 bf 83 0e af be 9a 8f c8 3d
       -0.43954366 -0.63720185 -0.3419076 0.09793015
000160 4d b6 90 be 2c e1 0e be d2 3b bd be 41 ee f1 bd
       -0.28264084 -0.13953084 -0.36959702 -0.118130215
000170 f1 71 3b 3e e2 de 85 be b4 d0 e0 3c 6c d9 99 bd
       0.18305184 -0.2614661 0.027443267 -0.07512173
000180 d0 5d 54 bc c5 ed 47 be 93 ef c1 be a7 92 cd bd
       -0.01296182 -0.19524296 -0.37878093 -0.10037737
000190 66 37 23 3e 26 3c 5c 3e 9b a9 6e 40 ed 18 58 c0
       0.15939102 0.2150732 3.729102 -3.3765213
0001a0 6a 8f 4c c1 62 f1 3f c1 9e 54 53 c0 63 cc c3 bf
       -12.785013 -11.996431 -3.3020396 -1.5296749
0001b0 a8 cc 85 bd 2a 29 33 3e 39 e1 16 be c9 20 21 bf
       -0.06533176 0.17496172 -0.14734353 -0.6294065
0001c0 44 39 3d be 75 2e 7a bf fc 63 c8 be 65 38 70 be
       -0.18478876 -0.9772714 -0.39138782 -0.23459013
0001d0 0c 25 9b bd 18 cd 1b be 62 7b 55 bd e2 c2 53 3e
       -0.075754255 -0.15214956 -0.05211962 0.2067981
0001e0 be 16 0d bf 45 8b 70 be 4f b0 05 bf 0b 4d f7 bd
       -0.55112827 -0.23490627 -0.5222215 -0.12075242
0001f0 04 68 66 be 81 e6 14 bf a7 3f 1a be e3 fb 81 3f
       -0.22500616 -0.5816422 -0.15063344 1.0154995
000200 be 6e 2e 3f ac 31 9b 3f af bb 8d 3f bc c0 8a bf
       0.6813773 1.2124534 1.1072901 -1.0840068
000210 b5 30 1f bf 93 20 12 bd ab 43 d6 be f4 4f aa be
       -0.62183696 -0.035675596 -0.41848502 -0.33264124
000220 9f 2e 17 be 11 a8 da be ce 8b 8b 3e cf 6b eb 3d
       -0.14763878 -0.4270635 0.272551 0.11495172
000230 cb 5a 61 be 7a a3 87 be dc bc 30 be eb ea 65 be
       -0.22007291 -0.2649191 -0.17259544 -0.22452895
000240 e2 e9 da bf ba c4 8e c1 b7 28 2a c1 9f a9 62 3f
       -1.7102625 -17.846058 -10.63494 0.8854007
000250 5b e5 4f 3f 24 98 ff 40 55 d5 37 3d 95 bf 29 3c
       0.81209344 7.987322 0.044881184 0.010360618
000260 c0 f8 b4 be 07 d1 ba 3e cc 96 cd be cf 1b be be
       -0.3534603 0.364876 -0.4015411 -0.3713059
000270 fb e7 25 bf 03 5f 88 3f 55 f9 9e 3f 90 14 94 3f
       -0.648071 1.0653995 1.241984 1.1568775
000280 5c 24 36 3e 6d e2 be bf 09 4b 7e be a5 08 ef be
       0.17787308 -1.491285 -0.24833311 -0.46686283
000290 c6 3a af 3e 9d 12 62 be 91 35 29 3e 39 33 36 be
       0.34224528 -0.22077413 0.1652434 -0.17792977
0002a0 49 17 f6 be a3 a0 01 3f 31 e9 17 3f 80 09 a4 3e
       -0.4806464 0.5063574 0.59340197 0.32038498
0002b0 6c 0b 9f be 53 53 68 bf 7c 28 08 bf af da 62 3d
       -0.31063402 -0.9075214 -0.53186774 0.055384334
0002c0 ca ac 06 3f dc 90 d8 3e 07 e5 db be bb d6 7c be
       0.52607405 0.4229802 -0.42948171 -0.24691288
0002d0 c3 df a6 be 05 8f 4f 3f eb 2d 50 3f f6 18 a1 3f
       -0.32592592 0.81077605 0.81320065 1.2585742
0002e0 96 c2 3a bd db d2 b0 bf df 71 d9 bd ac d8 ce be
       -0.045595728 -1.3814348 -0.10617422 -0.40399683
0002f0 49 b0 2e bf 96 cd df be ee 6a 4e be 77 54 89 3d
       -0.6823774 -0.43711537 -0.20157978 0.067055635

input_to_hidden.bias f4 [32]
000000 23 c2 d8 c0 64 e2 2d be 4a 19 03 be b2 77 11 be
       -6.7736983 -0.16980892 -0.12802616 -0.14205816
000010 e2 e9 b9 be 7e 5b c4 be b0 b0 8c be b9 f9 a1 be
       -0.3631125 -0.38351053 -0.27478552 -0.31635836
000020 74 32 4a be 36 e1 18 bf ce 0c 87 bf 49 70 2b bf
       -0.19745809 -0.59718645 -1.0550783 -0.6696821
000030 90 7b 7e be 8b 34 1d be 71 2a 9c be e5 51 3a be
       -0.24851823 -0.15352075 -0.3050113 -0.18195303
000040 71 75 97 be af 5f 86 41 17 ca 8a bf 43 a9 9a be
       -0.29581788 16.79672 -1.0842923 -0.3020726
000050 77 5b ee be a9 93 85 c0 9c 6c 1e be 88 52 bd be
       -0.46554157 -4.174275 -0.15471119 -0.3697703
000060 ac 82 35 41 c3 1d a0 3c c7 29 61 c0 ad 60 e0 be
       11.344402 0.019545441 -3.518175 -0.43823758
000070 41 25 6c bf 4d 1e 0f bf 0f 69 43 c0 3e 3a 25 be
       -0.92244345 -0.5590561 -3.0532873 -0.16135499

hidden_to_hidden.weight f4 [16, 32]
000000 31 5f b8 be b9 2d 1c 3d fd d2 0d 3e b6 49 ff bd
       -0.36010125 0.038129542 0.13850017 -0.12465231
000010 f2 54 ec 3a 53 9f 66 3e 30 83 13 3c f5 df c3 bd
       0.0018030687 0.22521715 0.0090034455 -0.09564201
000020 24 f0 9a 3d f6 eb 03 be 01 fc 52 3e 0a e9 13 3e
       0.075653344 -0.1288298 0.20603944 0.14444366
000030 b4 f7 c7 39 1e ff bc bc 97 ea 4c be fe f1 5e bd
       0.0003814079 -0.023070868 -0.20011364 -0.05443
000040 e0 e0 58 bc 4c 77 94 bf 53 62 6d 3e 9e 51 b7 3d
       -0.013237208 -1.1598907 0.23182039 0.08951114
000050 f3 d7 2c 3e 38 67 d4 bc 23 06 b7 3e 80 0f 72 3d
       0.16879253 -0.025928125 0.3574687 0.059096813
000060 cb a3 88 bf 42 24 fd 3d ec c9 0a be 0f d9 9e bd
       -1.0674986 0.12360431 -0.1355359 -0.077562444
000070 29 d0 a4 bd c1 23 bb 3c a4 22 fb bb 36 4e 3a bd
       -0.08047516 0.022844197 -0.0076640416 -0.045484744
000080 46 7e 82 3c a8 2f d6 b8 eb 84 f1 bd e1 1a 02 bd
       0.015929352 -0.00010213192 -0.1179293 -0.031763915
000090 11 e6 af 3e ee 51 06 3e ea 9f ec 3d 97 e5 a1 bd
       0.34355214 0.13117191 0.11553939 -0.07905119
0000a0 c1 f8 18 3e 00 51 8c be b8 19 41 bf ed 81 9c 3d
       0.14938642 -0.27405548 -0.7542987 0.07641969
0000b0 86 21 39 3d 6f 4f 9d bd ac 33 2f be 9f 2f fa bd
       0.045197986 -0.076811664 -0.17109555 -0.12216114
0000c0 6b 11 a9 bd cb 57 76 be 27 5b 40 3e aa 5f c7 3d
       -0.08255275 -0.24056928 0.18784772 0.09735043
0000d0 f0 6c ac bd 8c 65 37 3c 3f e0 aa 3e 4b 8c 30 be
       -0.08419216 0.011193644 0.3337421 -0.17241018
0000e0 7d ff 25 bf f7 26 c0 3d 3e bc 03 3d 45 4c 15 bd
       -0.6484297 0.09382432 0.032161944 -0.03644969
0000f0 36 7d 50 be c1 14 60 3e 7b e4 21 be 1a d6 ea 3c
       -0.20360264 0.21882917 -0.15809815 0.028666545
000100 94 66 d1 bd 9d 16 ff bd 6b 9e 20 be 38 32 8c bc
       -0.10224643 -0.12455485 -0.15685432 -0.01711379
000110 55 c8 09 be 00 4c 62 3d 0a 9c 26 3d 50 13 ec bd
       -0.13455327 0.05524826 0.040676154 -0.11527121
000120 8d 94 88 3d 72 cf 8b bc 9a d4 ed bd 24 d3 9d bc
       0.06668959 -0.017066691 -0.11612816 -0.019265719
000130 0d f9 1d be 2d bb d8 bd 35 a1 1a 3d 77 9c 90 bd
       -0.15427037 -0.10582576 0.037751395 -0.07061093
000140 2e 39 b2 bd 67 b5 f6 be 5e 0f 31 be 98 02 9c 3d
       -0.087023124 -0.48185274 -0.17291018 0.07617682
000150 f7 5c 01 be c7 15 60 be 37 5a 19 3b 65 c2 20 be
       -0.1263312 -0.21883307 0.002339972 -0.15699156
000160 93 ca 9b be 48 67 a0 3d e2 0d 7b be b5 ab 89 be
       -0.3042799 0.07832199 -0.24517015 -0.26888815
000170 94 10 33 be 3a 1d 5e be 61 f7 9e be 9b 1f 31 be
       -0.17486793 -0.21690837 -0.3104811 -0.17297213
000180 9f 6b e4 bd e2 d9 25 be 39 bd f3 3a e8 1f 42 bc
       -0.111533396 -0.16196397 0.0018595821 -0.011848427
000190 e0 89 af 3c 6b d6 02 be 48 55 af 3d 9b 46 d8 bc
       0.021428049 -0.12777106 0.08561188 -0.026400855
0001a0 c7 a0 0b 3e bb 7a 05 3e 01 73 91 bd 28 a7 e2 bd
       0.1363555 0.13035099 -0.071020134 -0.11067039
0001b0 4a 04 2c 3e 93 35 d9 bd f9 b5 2c b8 9d 85 15 bd
       0.16798511 -0.106059216 -4.117747e-05 -0.036504377
0001c0 7b 4b d9 3d aa 44 a1 be ff 14 f3 bc d9 d3 bf bd
       0.106101 -0.314977 -0.029673098 -0.093665786
0001d0 5b 6f 47 be 32 64 8a bd af f5 ec bd 6b 7a 67 bd
       -0.19476072 -0.06757392 -0.11570298 -0.05651323
0001e0 d0 fc 4c be 6e b9 e1 3d 6c 79 cd bd 5c ed 34 be
       -0.20018315 0.11021696 -0.10032925 -0.1766867
0001f0 cb 44 d0 be 8f 9c 47 be f8 c2 0c 3d a9 a9 0c 3e
       -0.40677485 -0.19493316 0.034365624 0.13736595
000200 13 29 83 c0 a8 b8 99 be 3c 35 c3 3d af 62 12 3e
       -4.098764 -0.30023694 0.09531638 0.14295457
000210 1d 25 f2 3d e0 7c bd 3d 43 10 39 3d ab f5 d2 3e
       0.11823485 0.09252334 0.045181524 0.41203055
000220 b7 67 a0 3d 93 b8 e8 ba df 36 01 be d3 e1 a3 3e
       0.07832282 -0.0017755203 -0.12618588 0.32008228
000230 80 3a d1 bc 1e aa 26 bd 09 96 25 bd 41 ea 6b 3c
       -0.02554059 -0.04068958 -0.040426288 0.014399112
000240 b8 00 17 be 60 67 8d 41 ca 98 f8 3d 22 85 0c be
       -0.14746368 17.675476 0.12138517 -0.13722661
000250 3f 9f 90 3e 7b 57 53 c0 8e 46 ca bd 00 b6 0b be
       0.28246495 -3.3022144 -0.098767385 -0.13643646
000260 12 5d 4d 41 3e fb 46 bd 62 43 e7 bf 5b bf 44 3e
       12.835222 -0.048579447 -1.8067439 0.19213621
000270 8b d7 2c 3e cd c9 9a be cb 9f ca bf 10 e6 81 3e
       0.16879098 -0.30232087 -1.5830015 0.25370836
000280 95 ea 9c be 87 10 62 3e a4 fd 22 3d d7 7a 01 be
       -0.30647722 0.22076617 0.03979267 -0.12644516
000290 dc 52 54 3e ad 12 d4 bb 11 53 0a be 8b bc 63 bd
       0.20734733 -0.006471953 -0.1350825 -0.05559973
0002a0 50 78 9d bd 54 c2 19 be ff eb e5 3f 25 3a 67 3d
       -0.076889634 -0.15015537 1.7962645 0.056451935
0002b0 f2 a6 1b 3d 25 e5 00 3e 2e 89 5b be ea b8 8e 3c
       0.03800101 0.12587412 -0.21439049 0.017422158
0002c0 fa a4 8b bc 34 c2 db bf ec 18 87 3c 4d a6 ad bd
       -0.01704644 -1.7168641 0.016491376 -0.08478985
0002d0 f9 ce 14 3d d1 ea 3f be 97 19 d2 3d 01 cc 52 3d
       0.036330197 -0.18741919 0.10258787 0.051464085
0002e0 c4 51 09 c0 78 f2 5b bd 8a a9 19 bd a8 b3 c6 3d
       -2.1456156 -0.053698033 -0.0375152 0.097022355
0002f0 01 a0 35 3d 09 74 73 bd d9 c6 97 3f fa 97 77 bd
       0.044342045 -0.05943683 1.1857558 -0.06044767
000300 30 7a 7e be 51 1e f2 bc a2 fe bc bd e1 48 4a be
       -0.24851298 -0.029555472 -0.09228255 -0.19754364
000310 b3 56 6b 3d a0 f2 a5 3d 95 7f c9 3d fe 09 f2 3d
       0.05745573 0.08102918 0.098387875 0.11818312
000320 01 34 84 3d 1c cf ac 3e 83 e7 f5 3d b1 35 51 bc
       0.064552315 0.33751762 0.12007048 -0.012769149
000330 b8 bb 02 3b 77 8d 06 3e f9 1b 8e 3e f0 96 97 bd
       0.0019948315 0.13139902 0.27755716 -0.07401836
000340 f3 4b fe 3d 9f c7 47 bf ec 18 f7 3e f3 f8 30 bd
       0.1241683 -0.7803897 0.482612 -0.043206166
000350 1d a5 f7 bd b2 5b 7d be f1 f9 c0 be 81 8e 33 be
       -0.1209204 -0.2474201 -0.3769069 -0.1753483
000360 d0 c4 d4 bf b7 d7 06 3d b5 2e 25 bd ce e7 0a be
       -1.6622562 0.032920565 -0.040327746 -0.13564989
000370 9f fd c7 bd 31 ce 90 bc f2 ee 37 3d cf e4 9f 3d
       -0.09765171 -0.017676445 0.04490561 0.07807314
000380 7d 28 36 be 2b 0b 43 be 84 6f 17 3e 36 ed e2 be
       -0.17788883 -0.19047229 0.14788634 -0.44321603
000390 43 b3 ef be 60 d5 3c be 5b de 97 3d 60 17 b4 bd
       -0.46816453 -0.18440771 0.07415458 -0.08793521
0003a0 5a 00 3f be f5 01 19 3e 74 fd 97 3f 61 8a 87 be
       -0.18652478 0.14942153 1.1874223 -0.26472762
0003b0 27 67 41 bd ba 73 eb 3b 88 c6 89 bc 70 9c a2 bb
       -0.047217514 0.0071854265 -0.0168183 -0.0049624965
0003c0 f1 d1 07 bd 47 1d 83 41 1f 27 71 3f 88 b7 54 3c
       -0.0331592 16.389296 0.9420032 0.01298321
0003d0 f8 a1 be 3d 92 74 15 40 c4 a5 88 3d cc a7 b0 bd
       0.09308237 2.33524 0.06672242 -0.08625755
0003e0 a7 95 6d 41 d3 09 9b bd 48 ae 1c 3f 3c 6c 92 3f
       14.849036 -0.07570233 0.6120343 1.143928
0003f0 07 db 00 40 57 8e a1 3f b0 c2 4b 40 3d 1b 77 3e
       2.0133684 1.2621564 3.1837578 0.24131484

hidden_to_hidden.bias f4 [16]
000000 dd d8 d1 be ce ef a6 be 07 b6 3f bf 41 c5 8e be
       -0.40985766 -0.3260483 -0.74887127 -0.27884868
000010 c2 1a 9e c2 93 d8 e7 bf e2 5c 32 bf 16 cf 89 c2
       -79.05226 -1.8112968 -0.6967298 -68.904465
000020 03 eb 49 be 3b 87 2d bf b3 df 26 bf 0f 4d 32 bf
       -0.19718556 -0.6778447 -0.6518509 -0.6964883
000030 87 2d 98 be b1 9c 10 40 fe 4a 10 bf ae 3a 07 bf
       -0.29722235 2.2595637 -0.5636443 -0.52823913

hidden_to_output.weight f4 [1, 16]
000000 5a a2 e9 3d 31 a6 de 3b e3 88 20 3e a8 db ee 3d
       0.11407919 0.006794714 0.15677218 0.1166299
000010 54 b0 87 3f 8f c3 46 3e c1 41 22 3e 11 e2 81 3e
       1.0600686 0.19410537 0.15845396 0.25367787
000020 57 30 31 3c 14 70 7d be 17 f4 16 3e 69 ed 54 3d
       0.010814748 -0.24749786 0.1474155 0.051984224
000030 ca 03 38 3c 85 13 58 c0 10 1a 82 3e 56 84 77 bd
       0.011231372 -3.3761914 0.2541051 -0.06042894
