saved/saved_model.pkl (torch, 5872 bytes, 5 tensors)

input_to_hidden.weight f4 [32, 6]
00000000: 812f 4940 3f36 ff3f e3af 4a3f 6a02 2d40
00000010: 7069 15c0 68d7 d540 112a 3ebe 1160 89bd
00000020: a1a8 aa3e 2feb c1be 6a1c 04be 9a44 03be
00000030: cd75 d4bc ae4a a4be 14c9 70be e48d e5bd
00000040: ad85 60be 8f37 c5be 8818 a640 be96 2541
00000050: b146 b740 de7e 2441 357f 9a40 cfde 92bf
00000060: c053 f9be e789 efbe 23b5 e7be 0fe7 28be
00000070: 0cdc 82be 01b1 913e 0653 fc3d a208 cbbe
00000080: ca9f d23d d6b7 5abe 34de 1bbf 2a64 88be
00000090: f9ea ff3c 1ca3 533d 03c2 d13e 5f1e 833e
000000a0: 20b1 ed3d 39ec f1bd 3258 8bbe 07f7 e03d
000000b0: 91d2 32be 6b0a bbbe be16 4abe 0fc8 15bd
000000c0: 120c 04be c489 86bd 6c84 063e bfad 01be
000000d0: 39ce 47be d953 90be c703 07bd 7b31 cec1
000000e0: dedc 44bf 5d4b c0bf 4aa0 1440 10e2 e040
000000f0: 3c87 cbbf 25cb a63f f6fa b2c1 0361 be3f
00000100: f2ad 99bf 73b4 143f 65ba e9be cf24 9d3d
00000110: 02bd b0bc 343e 593e 69fd 14bf 8031 95bd
00000120: 50cf f83f bb41 bac1 5db1 45c0 fc43 53c0
00000130: f1f1 5a40 3e4f ac40 b241 3ebe c237 c63e
00000140: 621b 1abe 83a5 a0be dc7c 6dbe 280d 3ebe
00000150: a137 a6be 06cf 313f 3328 c63e e02e d93e
00000160: fa57 97be 7363 c73e 6f06 eebe 3160 993d
00000170: 64fe a8be 1d6a c8be fd72 a1be add8 6abe
00000180: 839a 21be 1643 1dbe 5acb f8bd 92e1 0abe
00000190: b2f8 023e 44cf 1bbd 6f08 293e 6bf8 65be
000001a0: 82f5 38be 596c 9dbe 3f00 43be 6f3f 91bd
000001b0: 8c19 4640 2dbd cebf 8736 27bf aad2 93c1
000001c0: e85c 9e3f de30 49c0 03f3 1d40 1a03 34bf
000001d0: 56a4 c8be 24d6 8dc1 2a92 3940 04b1 0fc0
000001e0: 55ab 8abc c8d1 ae3e 3a9c 89be 0db8 18be
000001f0: 6423 c8bd 477e afbe 806c 563d c5c7 e640
00000200: 2e5e 9e40 aa44 9840 9690 eb40 ca71 47c1
00000210: 5c16 143e 8f23 b0be 1216 743d adaf b6be
00000220: fe9e 663e 4b6a 60bd a5c6 c340 8614 6540
00000230: b8be 3f40 0a27 c140 b90c 30bf 7f76 3541
00000240: d41e 87be 38ac 933d 7b41 b13e 5496 77be
00000250: 90c3 8dbe a10b 0b3d b031 06be e221 ccbe
00000260: 6e24 b23e 90a7 acbe b467 3dbd 2b7c 6fbe
00000270: 3521 a3be 195a e33d 6c7c 463e 5e24 54be
00000280: 9ca6 9dbb 1797 bfbe cdea 4fbe 2d91 123f
00000290: b125 3b3f 108e 633f 74f7 1d3e 0aaf aabe
000002a0: 760b ac3b 2810 4cbe 9efb 453c bc31 233e
000002b0: a777 e9bd af71 443e 85ce 95be 531b e8c1
000002c0: 30d6 733f ad8b b2be 3e4d 1440 0808 e240
000002d0: d1aa 933c 5ba5 923f a4f7 763f 9fef aa3f
000002e0: e244 573e 883f 3abe a816 68be 27a7 c6bc
000002f0: f758 933e 29e3 7e3e 8933 3dbf 9884 93be
3.1435244 1.993843 0.7917463 2.7032723 -2.3345604 6.6825447 -0.18570735 -0.06707776
0.3333178 -0.37874743 -0.12901464 -0.12819138 -0.025935078 -0.32088226 -0.23514205 -0.11208704
-0.21925993 -0.3851895 5.1904945 10.349302 5.7273793 10.280973 4.828028 -1.1474246
-0.4869671 -0.467849 -0.45255384 -0.16494392 -0.25558507 0.28455356 0.12320523 -0.39655024
0.102843836 -0.2135919 -0.6088593 -0.2663892 0.031239973 0.051669225 0.40968332 0.2560911
0.116060495 -0.11812634 -0.27215725 0.10984617 -0.17463137 -0.36531386 -0.19735238 -0.036567744
-0.1289523 -0.065692455 0.13136452 -0.12663935 -0.19512261 -0.2818897 -0.032962587 -25.77416
-0.76899517 -1.5022999 2.3222833 7.0275955 -1.5900645 1.3030745 -22.37254 1.4873356
-1.2006209 0.58087844 -0.4565002 0.07673036 -0.021574501 0.21215135 -0.58199173 -0.07284832
1.9438267 -23.282095 -3.0889504 -3.3010244 3.421017 5.384673 -0.18579748 0.38714415
-0.15049508 -0.31376275 -0.23192161 -0.18559706 -0.32464316 0.6945652 0.38702545 0.42418575
-0.29559308 0.3894306 -0.46489283 0.0748905 -0.33006585 -0.39143458 -0.31533042 -0.22934218
-0.15781598 -0.15357623 -0.12148161 -0.13562611 0.12790182 -0.03803946 0.16507123 -0.22458045
-0.18062404 -0.30746725 -0.19043063 -0.07092177 3.0953093 -1.6151482 -0.6531758 -18.477863
1.2372103 -3.1436076 2.4679573 -0.7031723 -0.39187878 -17.72956 2.8995461 -2.2451792
-0.0169274 0.34144425 -0.26877004 -0.1491396 -0.09772375 -0.3427603 0.052349567 7.211886
4.9489965 4.758382 7.3613997 -12.465281 0.14461654 -0.3440213 0.05959136 -0.35680905
0.22521588 -0.05478887 6.1179986 3.5793777 2.9960155 6.0360155 -0.68769413 11.34143
-0.26390707 0.072105825 0.3462027 -0.2417844 -0.27688265 0.033946637 -0.13104892 -0.398696
0.3479342 -0.3372159 -0.046241477 -0.2338721 -0.31861272 0.11101169 0.193834 -0.20716998
-0.004811121 -0.3741996 -0.20304413 0.5725277 0.7310439 0.88888645 0.15426427 -0.3333667
0.0052503897 -0.19928038 0.012083916 0.15936941 -0.11399775 0.19183992 -0.29259124 -29.013342
0.952487 -0.3487219 2.3172145 7.0634804 0.018025788 1.1456712 0.9647162 1.3354377
0.2102237 -0.18188298 -0.22664893 -0.024249626 0.28778812 0.24891342 -0.7390676 -0.28812099

input_to_hidden.bias f4 [32]
00000000: 2f2c 6ac1 b680 acbe a12b a7be 997d bec1
00000010: 44dd dabd 01cd 7fbe 6d1c 74bf 6f18 8cbd
00000020: 3ffb adbe e769 3040 f5a3 0641 d3f3 743d
00000030: 463c a240 6b00 91be 707a 5ec0 d45e 12be
00000040: b088 2fbe f59a 3abe 4343 bf40 1c8c 9a40
00000050: fa2b c8be 6386 25c1 6cda b4be 3396 96c1
00000060: 8139 0bbe 58db 4ebe 5cd9 99be c579 14c0
00000070: 4c06 b4be 3efd 0340 c77e 81c0 761e 26bf
-14.635787 -0.3369195 -0.32650474 -23.811327 -0.10686734 -0.24980547 -0.95355874 -0.06840598
-0.33980748 2.7564638 8.415029 0.05980284 5.0698576 -0.2832063 -3.476223 -0.14293987
-0.17141986 -0.18223174 5.9769607 4.829603 -0.3909605 -10.345309 -0.35322893 -18.82334
-0.13596155 -0.2020086 -0.30048645 -2.3199322 -0.35161054 2.0623317 -4.0467257 -0.6489023

hidden_to_hidden.weight f4 [16, 32]
00000000: 3639 a7be 1238 1b3e 9fc3 75bd 4bde 2b40
00000010: d782 523e 93ca ca3d 32b2 84be 26d2 a33b
00000020: 43c9 253e 2106 2a41 3683 46bf 3ff3 fcbd
00000030: f0f9 ee40 daa0 73bd df71 29be 689b 313d
00000040: ee51 a93c 2b26 253e b0af be40 fb23 c740
00000050: 7ac6 15be c2b9 20bf c5a3 853d 120b 2cc0
00000060: 4f07 38be e2b7 e13d 3e06 93bd f046 d9be
00000070: 1faa 21be d1b8 ac40 7175 0b3f 3a24 ffbe
00000080: 53b0 ffbe 97d7 2fbd 80aa 1cbd 5deb 2cbe
00000090: 1adb 2ebe 9099 18be 1fa0 8ebc dae3 053e
000000a0: 3fad 343e fdc0 4dbc d4e0 00bd 2580 c93b
000000b0: 5130 bcbd d74c 01bd 81b8 21be 083c 25be
000000c0: e80d c23d 9467 c0bd b62d 7ebd 3a53 d1bd
000000d0: 191f 22be 438f 48be f807 80bd b0a6 2fbe
000000e0: ef9d 45bd 705d c8bd f369 cbbc 1a30 e9be
000000f0: c4f5 ebbd 0cf1 17be cc6b a0bd e1f3 58bd
00000100: f956 2fc0 25c8 1d3e ad0a 0bbe 5f17 1940
00000110: 559a 803d 58e8 d7bd 90f1 61be d541 d63c
00000120: 941c 2bbd 924e 0741 5738 ec3f a753 b53d
00000130: 9d29 b840 6ba1 043e 9148 00c0 f966 4a3d
00000140: 2ec2 623e 9e71 f93d ced8 1241 3b0b a140
00000150: ab54 fe3c 8ac5 23bf 032d 38be 81b7 20c0
00000160: 1a58 adbd e7c5 633d 0ce4 623c 05ae 80bf
00000170: e2ac 813d 5c2d 9c40 1a5b 02c0 6385 d13d
00000180: eed6 4ebe c0fd 443d 6108 0fbe db5c 33be
00000190: 6230 2e3d 0600 e3bd 54e6 053e 316d b73b
000001a0: 8c44 293e 92fc 2dbf 5273 8b3d f25c 1b3e
000001b0: 4b2e babf d987 943d d5d5 a43d e1e2 62be
000001c0: c3e9 aa3e c6e8 3d3d 2d1e d0bf 3695 53bf
000001d0: 257f 16be 9318 9dbe 4032 c5bd 285d 12be
000001e0: e69c ca3d aa4e ca3d 9265 f6bd ccea bebe
000001f0: a195 03be a631 cfbf c8a6 b2be 6105 843e
00000200: 1397 62be d0e4 13be babf 993d 1b91 22be
00000210: 5caf 00bd 5d10 d4bd 059a be3e 6adf 2dbe
00000220: 9f09 1b3e e265 bebf 92f3 0ebf da2a 803e
00000230: 4474 5fbf dfb4 02be afcb 5abe 9aef 8bbe
00000240: 8a72 de3d 8708 b33d 5381 ecbf 2d70 2abf
00000250: 45bd 02be f5f4 81be 474f b33d 24f3 2a3c
00000260: b024 d93d 9f96 253e 75dd 0fbd 99f3 1bbf
00000270: 6ca9 73bc 3f9d 02bf c2e6 9dbe ceab 883e
00000280: 93e3 26be eb18 b23c 44ee e0bd fb32 36be
00000290: 476d fbbc 4fbf 1d3c 97d1 093e dd34 d5bb
000002a0: 39c3 3abd 4121 49be 5bf3 31bd ca60 fbbc
000002b0: e313 06be 322a 503d 03ba e3bc 44af 19bd
000002c0: 1870 ea3e 45e2 36bd 0fe0 39bd 1b39 babd
000002d0: 7287 f43d b329 cebe 9461 c23b f592 05be
000002e0: 0678 47bd d46e 223d 0ffd 0a3d 4c3c 0cbe
000002f0: 1c9f 91bd e9bf 8fbe d13d 4fbe 698d e6bd
00000300: 4c33 2bc1 33e9 d9bc 35cb c1bd 5473 463f
00000310: 0f6d 053d 5ede 963d 8c1a 91be 285c 113e
00000320: 8da8 f7bd 30c5 5841 ad34 1e41 1115 c0bd
00000330: 00dc c440 7e7b 84bc 2b1e 90bf ee83 123e
00000340: ef53 0a3e 2819 f03d 4adc 5541 b404 6c41
00000350: b56f cfbd b9a0 0dc1 62b2 84bd b61b 5bc1
00000360: 03aa d73c 69c2 e13d 2efe ba3d 8a84 25bf
00000370: 2d84 80bd 78c2 6d41 2d78 4bbf 072d ed3e
00000380: 40fc 90bf a2e3 21be 7250 cabd 9be0 81bf
00000390: 7b81 c43c a7e0 7abc 3947 843e eff3 dc3d
000003a0: 1331 423d 0c9d 0bbf 6943 67be d7f8 cb3d
000003b0: 884e 2cbe b07d 1dbe 908b debe a102 b4be
000003c0: 8cec 16bd 95bc 27be 9de5 ecbf 4a75 8f3d
000003d0: 83f9 04be 40fb 66bf 8d5d 60be e619 5fbe
000003e0: af77 bc3d d699 a53c 370f 653d 6cfe 83bf
000003f0: 2a04 ffbb a085 64bf 5523 fcbd 0f7f f9bc
-0.32660836 0.15158108 -0.060001012 2.6854427 0.20557724 0.09901919 -0.25917202 0.004999417
0.16190057 10.626496 -0.7754396 -0.12351083 7.46801 -0.059479572 -0.16547345 0.043361098
0.02066895 0.16127841 5.958946 6.223142 -0.14626494 -0.62783444 0.06525377 -2.6881757
-0.17971538 0.11021401 -0.07178925 -0.42436934 -0.15787552 5.3975606 0.54476076 -0.49832326
-0.49939212 -0.042930212 -0.03824854 -0.16886659 -0.17075768 -0.1490233 -0.017410336 0.130752
0.17644213 -0.012558219 -0.031464413 0.006149309 -0.09188903 -0.03156742 -0.15793039 -0.16136181
0.09475309 -0.09394756 -0.062055312 -0.10220952 -0.15832175 -0.195859 -0.0625152 -0.1715343
-0.04824632 -0.09783447 -0.024830794 -0.4554451 -0.115214854 -0.14838046 -0.078330606 -0.052966956
-2.7396834 0.1540838 -0.13578291 2.3920515 0.062794365 -0.10542363 -0.22064805 0.026154438
-0.0417753 8.456682 1.8454694 0.08853846 5.7550797 0.12952201 -2.004429 0.04941461
0.22144386 0.12179874 9.177931 5.032621 0.031046232 -0.63973296 -0.1798592 -2.5112002
-0.0846407 0.055608656 0.013848316 -1.0053107 0.06331803 4.880537 -2.0368104 0.102305196
-0.20199177 0.048093557 -0.1396804 -0.1751589 0.04252661 -0.11083989 0.13076144 0.0055977334
0.16530055 -0.67963517 0.06809105 0.15172175 -1.4545377 0.072524734 0.08048598 -0.2215686
0.3338147 0.04636457 -1.6259209 -0.8264955 -0.1469694 -0.3068281 -0.09628725 -0.14293349
0.09893207 0.09878285 -0.12031092 -0.3728851 -0.12850048 -1.6187027 -0.3489287 0.25785354
-0.22127943 -0.14442754 0.07507272 -0.15875666 -0.031417236 -0.103546835 0.37226883 -0.16979757
0.15140389 -1.4874842 -0.5584041 0.25032693 -0.8728678 -0.1276431 -0.21366762 -0.2733124
0.1086169 0.08741861 -1.8476967 -0.66577417 -0.12767513 -0.253822 0.08755355 0.010433946
0.10602701 0.16170739 -0.035123307 -0.60918576 -0.014871936 -0.5102119 -0.30840117 0.26693577
-0.1629775 0.021740397 -0.109829456 -0.17792885 -0.030691756 0.009628131 0.13458858 -0.006506546
-0.045596335 -0.19641592 -0.043444972 -0.030685801 -0.13093524 0.05082149 -0.027798658 -0.037520662
0.45788646 -0.04464938 -0.045379695 -0.09092923 0.11939897 -0.4026619 0.0059320424 -0.13044341
-0.048698448 0.039656475 0.03393274 -0.13694876 -0.07110426 -0.28076103 -0.20238425 -0.112574406
-10.700024 -0.026600456 -0.09462587 0.77519727 0.03257471 0.07366632 -0.28340566 0.14195311
-0.120926954 13.5481415 9.88786 -0.09379018 6.1518555 -0.016172167 -1.1259207 0.1430814
0.1350858 0.11723548 13.3662815 14.751148 -0.10128728 -8.851739 -0.06479336 -13.694265
0.026326185 0.11023409 0.09130512 -0.64655364 -0.062752105 14.859978 -0.7948025 0.46323416
-1.132698 -0.15809491 -0.09878625 -1.0146669 0.023987522 -0.01531235 0.2583559 0.10788714
0.047410082 -0.5453651 -0.22584309 0.09959572 -0.16826832 -0.15379977 -0.43465853 -0.35158256
-0.036846682 -0.16380532 -1.8507572 0.07004793 -0.12985806 -0.9022713 -0.21910687 -0.21787223
0.09202515 0.020214956 0.055922713 -1.0312018 -0.007782479 -0.89266396 -0.123114266 -0.030456094

hidden_to_hidden.bias f4 [16]
00000000: e0da 4cc2 e40d 44bf eea3 5fc2 2093 c6bf
00000010: efb8 acbf fb2b a3be 889a adc1 f41b e4bf
00000020: d1f3 a3bf a506 44c2 f4e8 63c2 8600 25c2
00000030: 0dab f8be 4804 58c2 331e 33bf 0508 6340
-51.213745 -0.76583695 -55.910088 -1.5513649 -1.3493937 -0.31869492 -21.700455 -1.7821031
-1.2808782 -49.00649 -56.977493 -41.25051 -0.48568 -54.00418 -0.69967955 3.5473645

hidden_to_output.weight f4 [1, 16]
00000000: 119c 0340 a0fd 14be c26b 243f 754b fa3d
00000010: 778d bcbd eae9 72bd cdd9 1b3e 75d0 ebbc
00000020: 83aa 05bf f758 553e fa14 f93d 65b6 6b3f
00000030: ea55 9bbe 54ea 533e 6461 bf3c 3f1f 18bf
2.0564005 -0.14549875 0.64226925 0.122214235 -0.0920667 -0.05930511 0.15219803 -0.028785923
-0.52213305 0.20834719 0.12162204 0.92075187 -0.30338985 0.20694858 0.02336187 -0.5942268
